ai/lstm_model.pt (torch, 90044 bytes, 6 tensors)

lstm.weight_ih_l0 f4 [256, 19]
000000 2c 0c c2 bd 3d 5a 5c bb 03 17 ae 3d fe ca 4f 3c
       -0.09474978 -0.0033623122 0.08500483 0.012682674
000010 1d 06 ba 3d e4 07 d4 3d f0 38 93 bc 8f 42 30 be
       0.09083197 0.103530675 -0.017971486 -0.1721289
000020 ef dd 46 3e 9e ab 63 3c c4 6e eb bb 27 87 b4 3d
       0.19420598 0.013895897 -0.007184835 0.08814841
000030 62 e1 8a 3d 9f 64 23 3d 6f 12 88 3d 27 1e 3a 3e
       0.067812696 0.03989088 0.06644141 0.18175565
000040 16 10 f7 bd 42 a5 05 3d ba b6 e5 bc e6 31 03 3e
       -0.12063615 0.032628305 -0.028041232 0.12812003
000050 a6 f6 b1 3b 59 61 e6 3d 53 6f 99 bc fe 8e ad 3d
       0.005431014 0.11249036 -0.018729841 0.08474539
000060 59 53 63 3c 3a 1f d8 3c 0b 7d ff 3d 0a a6 0f 3e
       0.013874852 0.026382077 0.12475022 0.14028183
000070 3a 81 ea 3d 25 c4 fe 3d b8 1a 38 3e 4d ac 33 3d
       0.11450429 0.12439755 0.17978942 0.04386549
000080 1a 5f 0b 3e 09 2c 41 bd 4a ba 38 3d 88 66 18 bd
       0.13610497 -0.047161136 0.045099534 -0.037207156
000090 02 24 11 3d 95 21 50 bd a8 ec 23 be 0a 85 36 bd
       0.03543473 -0.050813276 -0.16008246 -0.04456047
0000a0 6f 0e 2b be ea ae d3 bd 82 27 90 3d 83 52 d7 bd
       -0.16704725 -0.103360966 0.070387855 -0.10513785
0000b0 49 76 e6 bd 9d c3 05 3e bb f1 39 be da c7 72 bb
       -0.1125303 0.13062902 -0.18158619 -0.003704539
0000c0 8a 13 fe bc b3 60 14 be 34 50 77 bd 70 c2 96 3c
       -0.031015176 -0.14490013 -0.060379222 0.018403262
0000d0 03 f5 0c bd dd 6c b7 bc 98 0b 8c bd e1 50 20 be
       -0.03441335 -0.022390777 -0.06838149 -0.15655853
0000e0 dc 20 57 bd 33 62 10 bd 3a 6c 9d bc 1b e1 f3 3c
       -0.05252157 -0.0352499 -0.019216646 0.029770425
0000f0 30 74 3c 3d 94 7f 71 3a 52 dc 1b 3e 49 0f bb 3d
       0.046009243 0.0009212431 0.15220764 0.09133775
000100 c3 e6 f8 3d 1f e2 17 bd 9d 9e be bd 73 34 aa 3d
       0.12153389 -0.03708088 -0.09307597 0.08310785
000110 fb f1 7f bd 1d 8b 81 bc ee 30 f2 3d fa bf a5 bd
       -0.06248663 -0.015813405 0.11825739 -0.08093257
000120 57 f4 e2 3d 51 a3 17 bc 79 5c e3 3d 06 8a c9 3d
       0.110817604 -0.009255246 0.11101622 0.09840779
000130 13 56 28 be 11 77 f0 3c 82 b0 37 bd 75 4d 57 3d
       -0.16439085 0.02935365 -0.044846065 0.052564103
000140 af 95 bc 3d ac 5f df bd ca 27 12 be d2 6b b4 bd
       0.092082374 -0.1090692 -0.14272991 -0.088096276
000150 39 98 8f bd 00 b1 70 bd a4 c1 a0 bc b0 71 fa bd
       -0.07011456 -0.05876255 -0.019623585 -0.122287154
000160 88 19 03 3d 37 24 26 be ea 09 b0 3d 9b 7c 36 bd
       0.03200677 -0.16224752 0.08595641 -0.044552427
000170 4e 33 e5 bd 8b 00 80 bd 3f a9 ff bd fe 20 97 3d
       -0.11191426 -0.062501036 -0.12483453 0.0737934
000180 d1 3a e5 bc 2c 82 3b 3d 3a 87 1d 3d ff 96 0d bd
       -0.027982147 0.04577844 0.03845904 -0.03456783
000190 7b fe d3 bc 81 b8 91 3d c7 a0 86 3d 1b 22 b8 3d
       -0.025878182 0.071152695 0.065736346 0.0899088
0001a0 5a 03 a3 bd e5 05 49 bd b7 3a 22 bd ce b6 0a 3e
       -0.07959624 -0.049077887 -0.039606776 0.13546297
0001b0 3f dc fd bd 4c 07 e0 3d 61 66 08 3e 8d 0e 00 3e
       -0.12395524 0.10938892 0.13320304 0.1250555
0001c0 71 ce b8 bc 71 ad 61 3e ff 5f 81 3d 33 2e b0 3d
       -0.022559376 0.22038819 0.06317138 0.08602562
0001d0 cc f4 a2 3d 60 06 28 3e 41 1e 75 bd a4 75 2f 3e
       0.079568475 0.16408682 -0.059843305 0.1713472
0001e0 2c be 0f 3d 91 22 66 3d 9f 7a c9 3d 14 d3 08 bd
       0.03509347 0.05618531 0.09837841 -0.033404425
0001f0 d7 12 9f 3d 56 58 c4 3b 2a 55 7e 3e ca a2 1e bd
       0.07767265 0.005991976 0.24837175 -0.038729466
000200 10 17 50 bd bc 7a ff 3b e0 69 42 3e cf 45 4e 3e
       -0.050803244 0.0077966135 0.189857 0.20143817
000210 80 32 15 3e 17 34 36 3d c8 58 07 bc 24 9a 30 bd
       0.14570045 0.04448327 -0.008260913 -0.04311575
000220 6b 7d da 3d fb 35 73 3c 30 e3 f1 3d f5 b5 84 3d
       0.10668453 0.014844413 0.11810911 0.06480018
000230 df 66 83 3d a7 8d 07 3e e2 9c 99 3c fd 28 12 3e
       0.064161055 0.1323763 0.018751565 0.14273448
000240 27 29 1d 3c 12 3b 86 3d 16 45 d1 ba 0b 8c 05 bd
       0.009592331 0.065542355 -0.0015966024 -0.03260426
000250 de d5 a5 bd 2f ad 3f 3e ac d2 bf bd 66 3e 66 bd
       -0.080974326 0.18718408 -0.09366354 -0.05621185
000260 0c 35 9c 3c 4b 73 e5 3c 84 61 db bc 00 c6 e8 3d
       0.019068263 0.028009078 -0.026779898 0.113658905
000270 f3 2c 4d 3d ac d3 06 be 2d 78 b5 3d c0 9f 3e bd
       0.050091695 -0.13166684 0.08860812 -0.04653907
000280 b1 a3 2e bd fd cd fd bb ad 11 21 3c 69 7b 9d 3d
       -0.042636577 -0.007745503 0.009830874 0.07689554
000290 c4 18 0d bd 0f d0 c9 ba 34 92 82 3c f6 34 16 be
       -0.034447446 -0.0015397089 0.015938856 -0.1466864
0002a0 e9 32 0e 3d 2c 61 ad bc ab 26 5c bd 75 5f 36 3e
       0.03471652 -0.0211645 -0.053747814 0.17809851
0002b0 c5 87 44 3d 04 9c 64 bd 12 dd 83 3d 76 0b 6f bd
       0.047981042 -0.05581285 0.0643865 -0.05836054
0002c0 b4 f7 24 3e 77 40 a8 3c 83 7b 07 3e 90 bf a5 3d
       0.16110116 0.020538552 0.1323071 0.08093178
0002d0 41 bf 18 3e 81 40 94 bd 28 4c 20 3e 3b fd 44 bd
       0.14916708 -0.07238866 0.15654051 -0.048093062
0002e0 95 a5 3b 3c b8 d0 21 3d ad 12 f5 3c dd c5 35 3e
       0.011453052 0.03950569 0.029916132 0.1775126
0002f0 65 a5 18 3e 1f eb 9b bc 33 4f 25 3e 4c 29 21 3c
       0.14906843 -0.019033013 0.16143493 0.009836506
000300 f3 bc 4a 3d 45 ac 05 3c b9 77 de 3d 07 d2 8c 3d
       0.049496602 0.008158748 0.10862679 0.06875997
000310 c6 60 c4 bc dc 0f 99 3c 17 31 2c 3e 1f e9 d4 bd
       -0.023971926 0.01868432 0.16815601 -0.10396027
000320 48 32 95 3d df 87 08 bd 5c 0e 9f bd 19 91 47 bd
       0.07284981 -0.0333327 -0.07766411 -0.04872236
000330 33 c9 e2 bd f4 83 e2 3c f3 1c 66 bd b0 1c 54 bd
       -0.11073532 0.02765081 -0.056179952 -0.05178517
000340 b6 35 8e bd c0 37 db 3c 2f e8 be 3d 9e d8 2a bd
       -0.06943838 0.026759982 0.09321629 -0.04171049
000350 41 d0 19 bc 6a c3 5d 3d 1a f3 5f bd d7 52 18 be
       -0.0093880305 0.05414144 -0.0546752 -0.14875351
000360 4e 47 f7 bc 75 bf 4c bd 92 ee 91 3d 8d e1 cf bc
       -0.030185368 -0.049987275 0.07125582 -0.025376106
000370 e0 75 ce bb f7 69 75 bd 89 c4 47 bd 65 6d 05 be
       -0.006300673 -0.05991551 -0.048771415 -0.13030012
000380 ed 91 99 3d e3 80 07 3e dc 63 0a bd 6c de e0 3c
       0.07498536 0.1323276 -0.03378664 0.027449809
000390 9a c9 03 be e8 52 8f bc 78 65 3f bd be 1e 13 be
       -0.12869874 -0.017495587 -0.046727628 -0.14367196
0003a0 42 56 c5 3c fb 0b 34 bd 83 8b 8b bd 77 61 00 be
       0.024088982 -0.043956738 -0.06813719 -0.1253718
0003b0 93 e3 3e bd 70 e7 d4 bd 50 0c 18 3e 11 18 39 bd
       -0.04660375 -0.10395706 0.14848447 -0.045188967
0003c0 b8 e7 91 3d 9a 17 21 bc 25 b8 61 3d 3b 43 fb bc
       0.07124275 -0.009832287 0.055107255 -0.030671706
0003d0 5e c9 9e bc 66 1a 94 3d c3 97 9c bd b4 1d 27 bd
       -0.019383129 0.072315976 -0.07646134 -0.04079981
0003e0 51 41 03 3e 33 73 cd 3d f9 19 d7 3a 3c c6 3e bd
       0.12817885 0.10031738 0.0016410939 -0.04657577
0003f0 a5 d1 dc 3d 63 0f 5c bd 7c ad 9b bd 18 19 7d bd
       0.10782174 -0.05372561 -0.07601449 -0.06179151

lstm.weight_hh_l0 f4 [256, 64]
000000 9d 5e 49 be f3 38 99 bc 5c c9 ac 3d 66 93 c2 3d
       -0.19664998 -0.018703913 0.08436844 0.0950077
000010 f2 3d 6d 3c 96 09 6a bc d8 9d 6b 3d 7b 76 84 bd
       0.014480101 -0.014284512 0.05752358 -0.06467911
000020 4e 5d 64 3e 19 23 ec bc 15 5c 1d 3e fe d5 96 3d
       0.22301218 -0.02882533 0.15367158 0.073650345
000030 ef 3b ab bd 89 45 62 3e 7f 98 2b be 4e f8 2d 3d
       -0.08361041 0.22096838 -0.16757391 0.04247313
000040 02 20 87 be 87 fd 11 bc 79 3e 3a 3e e1 f9 01 be
       -0.26391608 -0.008910543 0.18187894 -0.12692977
000050 76 3c 17 3e b5 fa ae bd db 3c 93 3c c5 5c 6c bd
       0.14769158 -0.08543912 0.017973354 -0.05770566
000060 5c 75 47 3d ad 48 17 3e 9f e6 64 3e 73 94 b0 3b
       0.048695907 0.14773817 0.223536 0.0053887903
000070 9e f3 c4 3d 34 91 04 3c 63 05 1a 3d 5c 43 dc 3d
       0.09616779 0.00809126 0.037602793 0.10755035
000080 e5 bf e6 bd 83 93 65 bd 33 7f 81 be 8a 40 a6 3d
       -0.1126707 -0.05604888 -0.25292358 0.081177786
000090 02 72 1d bd d7 34 15 3e 46 4a c5 bd be 33 16 3e
       -0.038438804 0.14570938 -0.09633307 0.14668176
0000a0 8a a8 cd 3d 3b 52 87 3d 1f 72 dd 3c 90 10 e1 3c
       0.10041912 0.06607481 0.027031956 0.027473718
0000b0 c0 55 8f 3d 25 e8 1f 3d 35 62 42 be fa d2 ce 3d
       0.069987774 0.03903975 -0.18982776 0.10098834
0000c0 84 74 12 3d 4f 8b ff 3d fd 63 6d bd da 84 d9 3d
       0.03575565 0.12477743 -0.057956684 0.106210425
0000d0 4b 11 a0 bb f5 95 33 bd 36 3a 05 3e 7b f6 2c 3e
       -0.004884874 -0.043844182 0.13010487 0.168909
0000e0 4e b5 89 3c 53 36 16 3e 24 15 59 be b4 0e cb bc
       0.016810086 0.1466916 -0.21199471 -0.024787284
0000f0 2d a2 01 be f8 94 8f 3c 80 eb 97 bb f9 3a 25 3d
       -0.12659521 0.017527089 -0.004636228 0.040339444
000100 c4 fe 92 3b 7c 0f 64 3d f2 14 c5 3d e7 0d 4b bd
       0.004485937 0.05567883 0.096231356 -0.049573805
000110 ec 9d 65 be 9d 9d 42 be 42 14 57 3d 50 90 d9 bc
       -0.22423524 -0.19005437 0.052509554 -0.026558071
000120 b7 83 3f 3d e7 5b d6 3c df a8 b4 3d 79 ea 1f 3d
       0.046756472 0.02616687 0.08821272 0.03904197
000130 86 f5 9d 3d d7 96 94 bc e6 f0 70 3c 21 64 a4 bc
       0.077128455 -0.018138332 0.014705872 -0.020067276
000140 85 92 61 bd 5f 58 01 3e 6a 28 d4 3c 4a 3a 33 3d
       -0.055071373 0.12631367 0.025898177 0.04375676
000150 c8 6c ce 3c 79 bf af 3c e3 af a4 be 75 b3 21 bd
       0.025198355 0.021453606 -0.3216544 -0.039477784
000160 cf b5 dc bd 19 53 58 3d 50 59 11 3e 7b 41 57 be
       -0.10776865 0.052813623 0.14194226 -0.21021073
000170 e0 90 f3 3d 2b 3c 82 3d 8a 42 ad bd dd 07 18 3e
       0.11892867 0.063591324 -0.08459957 0.1484675
000180 4f 83 2a 3e 51 03 e5 3d 87 65 41 3c d0 17 0d 3e
       0.16651653 0.11182273 0.011803991 0.13778615
000190 59 c9 8b bc b9 d9 a0 bd 89 ee 41 be e7 30 8f bc
       -0.017063783 -0.07854027 -0.1893865 -0.017479373
0001a0 ad 1d fa 3d 62 12 25 bc b8 6e ab bd f3 ec bc 3d
       0.122126915 -0.010075184 -0.08370727 0.09224882
0001b0 8d 11 bb 3d ef 27 2b 3e 44 9a 2d 3d 87 2a 20 bc
       0.09134207 0.16714452 0.042383447 -0.009775764
0001c0 1d 05 b6 3d f4 95 60 bd 81 03 1d 3e 36 f4 ae bd
       0.08887694 -0.054830506 0.15333368 -0.08542673
0001d0 69 84 1d bd 1e 84 bf bd 70 52 7a bc 1b 8d 9e 3c
       -0.038456354 -0.09351371 -0.015278444 0.019354394
0001e0 34 f5 b3 3d 7a 3d c9 3c 5c 0a ee bd 24 ad 29 be
       0.08787003 0.024565447 -0.1162307 -0.16569954
0001f0 14 83 93 bd e9 3e 1c bc 4c d1 82 bd 82 14 33 3e
       -0.072027355 -0.009536483 -0.063875765 0.17488292
000200 57 ec 29 bc 75 e2 6f be a0 2f 1b bb f8 f1 76 3d
       -0.010371289 -0.2342623 -0.002367951 0.060289353
000210 26 67 02 bd ba 32 65 3d 2e bf 5d 3e 01 4a 00 bd
       -0.03183665 0.05595658 0.2165496 -0.031320576
000220 d1 0d 27 3d 15 68 2d 3d 12 a3 ba bd 6b 39 7c 3b
       0.04078466 0.04233559 -0.091131344 0.0038486372
000230 12 39 b9 bd 91 98 ee bd 07 13 0f 3d 23 1a bf 3d
       -0.090440884 -0.116501935 0.034930255 0.09331157
000240 8a 2c 2f 3e 60 0e 2c 3e 62 94 55 3d 51 e5 30 3d
       0.17106834 0.16802359 0.052143462 0.043187443
000250 6f 45 c1 3c 49 f7 37 3d 7f a3 16 be 03 a4 29 3c
       0.023592679 0.044913564 -0.14710806 0.010354045
000260 54 38 a3 3d 26 57 f8 3d 2b 80 59 bd 60 38 3d bb
       0.07969728 0.12125997 -0.053100746 -0.0028872713
000270 40 9b 91 bd 5c 55 37 3e 5f 88 fb 3c c6 f1 08 3e
       -0.0710969 0.17903656 0.030704675 0.13373479
000280 2a ac 6c bc b9 f0 04 3d 31 57 39 be 63 d1 03 bc
       -0.014445344 0.032456134 -0.18099667 -0.008045527
000290 0a 8d 89 3d 3b 68 93 bd 43 8f a6 bb 89 1a 4b 3c
       0.06716354 -0.07197615 -0.005082996 0.012396463
0002a0 9d b5 18 3d 5b 4f cb bd 5c 3d ae 3b 80 e3 0a be
       0.037282575 -0.09927245 0.005317373 -0.13563347
0002b0 43 e8 f4 bd 40 34 dc bd 82 a8 cf bb d5 cc 07 3e
       -0.11958363 -0.107521534 -0.0063372264 0.13261731
0002c0 68 3b 3e 3d ba 85 c5 bc 8e d2 12 3e 74 92 81 3d
       0.046443373 -0.024111617 0.14338133 0.06326762
0002d0 1c ad 84 3d b9 c9 58 3d ef 23 1e bd d6 2d e9 3b
       0.064783305 0.052926753 -0.038608488 0.00711606
0002e0 a3 6b 0b be 31 7f ef 3d 80 d6 28 bd 8f 6f a6 3d
       -0.13615279 0.11694182 -0.04122019 0.08126747
0002f0 0b 88 8f 3d 93 00 24 be 86 36 c8 3d c0 85 07 bd
       0.0700837 -0.16015844 0.097760245 -0.03308654
000300 9e f9 86 bd 98 c3 cf 3d c9 da a7 3d 4b 90 52 3e
       -0.065905795 0.101447284 0.08196027 0.20562856
000310 a8 d6 33 be 73 5e 4a bb b3 cf 83 3c 49 9a 79 3d
       -0.17562354 -0.003087905 0.01609025 0.060938153
000320 9b f4 cc bd 05 61 d6 3d 92 9a 80 3c 50 80 c9 bd
       -0.10007592 0.10467724 0.015698705 -0.09838927
000330 b3 f0 22 be 5f 01 63 b9 71 63 d7 bc 4f af ae 3c
       -0.15912132 -0.00021648918 -0.026292535 0.021323828
000340 60 08 57 3d 53 a7 7e 3d 76 32 0d 3c c1 ed 64 bd
       0.05249822 0.06217129 0.008617988 -0.055890802
000350 38 05 73 be d8 0e 35 bd bd 5d 0e be ab f4 61 bc
       -0.2373246 -0.04420361 -0.13902946 -0.013791244
000360 87 64 56 3e a3 52 94 bd dd 8f 06 3d 43 e0 43 3d
       0.20936786 -0.07242324 0.032852042 0.047821295
000370 80 72 b7 bd 53 51 c4 bc 0e fc 70 bd 31 1c 4a be
       -0.08957386 -0.02396456 -0.058834128 -0.19737317
000380 3f e1 0c be 2a 6b 5b 3d 7e f8 64 3e 54 42 06 bd
       -0.137578 0.053568996 0.22360417 -0.0327781
000390 e2 33 1a bd c2 44 15 3e 9f b1 d8 bd 9e be d3 3b
       -0.037647136 0.1457701 -0.105807535 0.0064619323
0003a0 c7 2c 81 bd 30 b4 be bc 1c 30 75 be 0a 54 65 3d
       -0.06307369 -0.02327928 -0.23944134 0.05598835
0003b0 10 ce b7 3d bf fe 89 bd 9c 67 b3 3d 23 31 d9 bd
       0.0897485 -0.06738042 0.08759996 -0.10605075
0003c0 76 3b c8 bd 47 cb 3a 3d c6 8e 06 bd b7 3f d0 bd
       -0.09776966 0.045604017 -0.032851003 -0.10168403
0003d0 79 97 fe bc cf cb d3 3d 8e eb 18 bd b6 df 0c be
       -0.031078087 0.10341608 -0.037334017 -0.13757214
0003e0 a1 f3 c4 ba 4f 01 ab bd 82 01 2e 3e bd f3 8e bd
       -0.001502622 -0.08349859 0.16992763 -0.06980083
0003f0 bc e3 c8 3d 38 8d e3 3d 80 d5 ae 3a 9c d7 84 bd
       0.09809062 0.1111092 0.0013338774 -0.06486437

lstm.bias_ih_l0 f4 [256]
000000 ad 92 0b 3e 9f 23 27 3e 26 36 2f 3d e0 90 e6 bc
       0.13630171 0.16322182 0.04277625 -0.028145254
000010 1e b2 c3 bc f0 0e 65 3d f1 19 6d 3e 53 1b d7 3d
       -0.023888644 0.05592245 0.23154427 0.105032586
000020 0e 99 32 bc 27 76 78 3c 0b eb 1f bb ee eb 75 ba
       -0.010900749 0.015164888 -0.002440157 -0.00093811646
000030 9d e2 1c bd e4 b9 a8 3d 3e 6f 11 3e 66 24 82 3d
       -0.038302053 0.08238581 0.14202592 0.06354599
000040 00 e6 9d 3b 32 6b f4 3d 58 59 59 be dc ab d2 bd
       0.004818678 0.119345084 -0.21225488 -0.10286686
000050 98 76 d4 3d 3e 57 93 3d e8 5a 03 3e aa 1f f5 bb
       0.103741825 0.071943745 0.12827647 -0.0074805813
000060 a0 d3 95 bc f0 be 89 ba d0 0e 9f bd bf a9 ca 3d
       -0.018289387 -0.0010509174 -0.07766497 0.09895658
000070 2d dd 46 bd 68 05 40 3e 5c 30 47 bd 69 8b 9b 3c
       -0.048550773 0.18752062 -0.048630103 0.018987374
000080 d5 e9 d5 3d 0c 72 ab bd 49 78 e7 3d 5c cd b0 3c
       0.104449905 -0.08371362 0.113022394 0.021582298
000090 10 07 bf 3c 0a b1 2d 3e 39 b7 81 3d 0f 6c 9e bd
       0.023318797 0.16962066 0.06333775 -0.07735454
0000a0 b1 c5 f5 3d f0 22 97 bd 48 2b 33 3e 04 6e 4e 3e
       0.12000597 -0.07379711 0.17496979 0.20159155
0000b0 ff 4b 39 3c 22 61 d3 bc 56 73 f1 bb 05 16 b6 bd
       0.011309623 -0.025803152 -0.0073684854 -0.08890919
0000c0 aa 82 de 3d 6a 42 71 bb 8d 6e ad bc bd a5 70 3d
       0.10864766 -0.0036813268 -0.021170879 0.05875181
0000d0 d6 b2 06 be ab a1 8e 3d da aa 81 3d 35 dd 8c ba
       -0.13154158 0.069644295 0.063314155 -0.0010747077
0000e0 4a 25 12 3e 3d d3 41 3d 3f f9 b3 3d 69 3e 92 3d
       0.14272037 0.047320593 0.08787774 0.0714081
0000f0 2a 63 aa bd 6a 60 6d 3d cd c6 e8 3c 87 70 c4 3d
       -0.08319695 0.057953276 0.028415108 0.095917754
000100 20 e8 6a 3d 94 83 d4 3d 5b f0 db bc e7 57 a8 3d
       0.057350278 0.10376659 -0.026848009 0.08219891
000110 22 33 04 3d 72 d5 4e bd 8f 75 25 be 3e 24 80 bc
       0.032275327 -0.050496526 -0.16158126 -0.015642282
000120 4f b1 ed 3d c7 f1 08 3e dc bd 0b 3e d2 c0 b5 bd
       0.116060846 0.1337348 0.13646644 -0.08874668
000130 2b b6 cc bd 33 df 94 3d 93 e7 1a 3e f7 a9 32 3e
       -0.09995683 0.07269134 0.15127401 0.17447649
000140 c7 88 0a 3d 27 b5 9e bd ad fc 12 3c 50 12 35 bd
       0.033821847 -0.07749396 0.008971375 -0.044206917
000150 73 f8 f5 3d 1c f6 c5 3d 65 b9 ac bd 03 52 05 3d
       0.120102786 0.09666082 -0.08433799 0.032548916
000160 c1 99 9a 3d b5 d9 ad bd 60 26 c0 3d 8e 67 8a bd
       0.075488575 -0.0848879 0.093823195 -0.06758033
000170 4a 99 e2 bb 12 15 74 3d cc 32 aa bc 51 90 4d 3e
       -0.006915246 0.059590407 -0.020776175 0.20074584
000180 e1 ad 32 3e 45 1f 25 3c 40 21 fe 3c 10 eb 9b 3d
       0.17449142 0.010078256 0.031021714 0.07613194
000190 06 a9 13 bd ca d0 8b 3c bb bd 86 3e c1 41 37 3d
       -0.036049865 0.017067332 0.26316628 0.044740442
0001a0 1a fa 0e 3e fc 2f 96 bd e8 3b 1b 3d 2f f4 22 3d
       0.13962594 -0.07333371 0.037898928 0.039783653
0001b0 75 f0 f6 3d bd bb e0 3d e0 4b 08 3d 84 c3 9d 3d
       0.12057582 0.10973308 0.033275485 0.07703307
0001c0 dd 72 59 3e e4 19 49 be f9 21 89 3b f4 5f 83 3d
       0.21235223 -0.19638783 0.004184958 0.06414786
0001d0 71 44 22 3d 66 c3 01 3c 6f 87 dc 3c 53 aa 4b 3d
       0.039616052 0.007920122 0.026920049 0.04972298
0001e0 b5 51 b5 3d f7 91 f4 3d ff 91 2e 3e cf 7d e5 bd
       0.08853475 0.11941903 0.1704788 -0.11205637
0001f0 24 43 a4 3d 39 aa 00 3e bd eb 17 bd 01 67 94 3c
       0.080206186 0.12564935 -0.037090052 0.018115522
000200 15 ce 87 bd e8 85 fd 3d c4 73 ec bc 36 89 67 bd
       -0.06631104 0.12379056 -0.028863795 -0.05652734
000210 1b 96 e1 3d 48 05 e1 bd b7 fd 86 3d b7 d9 bc bc
       0.110149585 -0.109873354 0.06591361 -0.023053033
000220 f7 70 04 3e de 0f 31 bd 16 83 d4 bd 78 47 00 bd
       0.12933718 -0.043228023 -0.10376565 -0.031318158
000230 97 b6 84 bd 17 73 56 bd eb 83 a4 3d b1 60 8a 3d
       -0.06480139 -0.052355852 0.08032974 0.06756724
000240 52 93 ce 3d 4b 8c 37 3d 4c 2a e2 3d 9e 24 67 bd
       0.10086693 0.04481153 0.11043224 -0.056431405
000250 eb 3b d7 3d bd 95 94 3d a1 46 26 bd 1a 93 cf bb
       0.10509475 0.07255123 -0.0405947 -0.0063346745
000260 23 a0 97 bd 2e fa 6b bd 1d a0 fd 3d 8a 79 b0 3d
       -0.074035905 -0.057611637 0.12384055 0.08616932
000270 13 d3 26 3e 30 ad 2e bd bd 3c 83 3d 7f c8 cb 3d
       0.16291456 -0.042645633 0.06408069 0.09950351
000280 3c 24 45 bc fe 25 ba 3d 77 48 13 3e c6 6e af 3d
       -0.012032565 0.09089278 0.14383112 0.0856605
000290 02 72 6e 3c 42 b1 db bd 9d 70 ea 3d 18 5d 2a bd
       0.014553549 -0.107271686 0.114472605 -0.041592687
0002a0 fc e6 2a 3d 57 eb cd bc a1 59 a2 3d 61 38 a5 3d
       0.04172419 -0.025136633 0.079272516 0.08067394
0002b0 13 52 1a 3d 6b 05 c6 3d 10 e7 08 3d 75 54 58 bd
       0.03767593 0.09669002 0.033423483 -0.05281492
0002c0 81 be 34 3d d6 ab 5d 3c 00 42 9b bd 19 c8 d1 bc
       0.04412699 0.013529738 -0.07580948 -0.02560811
0002d0 ad d9 d3 bd 1e b2 53 bc 1e 3b 81 bc 5e bd 91 3d
       -0.10344253 -0.012920884 -0.01577526 0.07116197
0002e0 52 7d a7 bc fc 63 13 bd fe 04 3e be b0 29 1e 3e
       -0.0204455 -0.035984024 -0.18556592 0.1544559
0002f0 05 92 82 3d 60 10 a2 bd df f7 a6 3d 2e 1f 04 3e
       0.06375507 -0.079132795 0.081527464 0.12902519
000300 ad a3 88 3d 03 37 da 3d eb 5f 6c bd 7e 66 22 3e
       0.06671844 0.10655024 -0.057708662 0.1585941
000310 46 5e 1e 3e 0e 90 8b 3d 77 79 7f 3d 8e b0 48 3d
       0.1546565 0.068145856 0.062371697 0.0489965
000320 31 d6 e7 3d 98 ab f8 3d c5 9e 13 bd 26 26 83 3d
       0.11320151 0.12142104 -0.036040086 0.064037606
000330 11 1f 62 3d 64 ca 15 3e e4 88 19 3e 5d a0 8f 3d
       0.05520541 0.14627987 0.14993626 0.07013009
000340 8b 4b 58 3e b0 29 1f 3e af 6f 59 3e 6b a8 a3 3d
       0.21122567 0.15543246 0.2123401 0.079911076
000350 1e 19 7b 3e 0c 22 b7 bd 3c e1 16 3e 89 f7 0c 3e
       0.245213 -0.08942041 0.14734358 0.13766302
000360 1c c9 57 bd 41 5c 2c 3e 6b 48 d9 3d 92 c3 7c bd
       -0.052682027 0.16832067 0.10609516 -0.061709948
000370 0d f4 db 3d f5 54 36 3e 50 0d 62 bd 82 18 21 bd
       0.10739908 0.17805846 -0.055188477 -0.039330013
000380 b7 01 b7 3d bc 85 d4 3d 57 4c ab 3c 2c 68 f7 3b
       0.08935874 0.1037707 0.020910425 0.00755026
000390 70 54 f1 bb b5 22 40 3e d1 c3 d9 bd c6 b0 99 3c
       -0.007364802 0.1876324 -0.10633052 0.01876105
0003a0 76 77 85 bd 4d d5 a2 bd 71 f6 bf 3d 3e 59 20 3e
       -0.06516926 -0.0795084 0.09373177 0.15659043
0003b0 3d a7 1a 3d e1 62 50 3d 91 95 85 3d d7 d0 50 bb
       0.037757147 0.05087555 0.06522668 -0.003186276
0003c0 ad 27 3a 3e 80 f8 d2 3d 26 ff 52 bd 50 97 e0 bd
       0.18179198 0.10301304 -0.05151286 -0.109663606
0003d0 d3 53 b6 3d 01 b5 23 bc 2a fd 6e 3e 62 cb 22 bd
       0.08902707 -0.009991885 0.23338762 -0.039744742
0003e0 d1 1e f6 bc 6d df ad 3d 1b e1 8f 3c e8 5c 8c 3e
       -0.030043991 0.08489881 0.017563393 0.27414632
0003f0 76 8b 39 3d bb a1 35 3e f5 8a c8 3d 80 e3 a5 3d
       0.045299016 0.17737477 0.09792129 0.08100033

lstm.bias_hh_l0 f4 [256]
000000 ff 22 3c bd d1 1e 5f 3d 45 5e 24 be c1 18 5a 3d
       -0.045931812 0.05447275 -0.16051586 0.053246263
000010 51 38 08 be a4 4a ec bc e1 58 19 3d 48 16 93 3d
       -0.13302733 -0.028844185 0.037438277 0.07181984
000020 37 a5 82 bd 6d 07 c8 3c 0e 1c af bd 34 fa f8 bb
       -0.063791685 0.024417603 -0.08550273 -0.007598186
000030 88 d8 69 3d 5c ca 02 be a4 8c 3a 3e 12 78 85 3c
       0.057091266 -0.12772506 0.18217713 0.016292606
000040 b5 8b 3d 3e 20 05 06 3b fe 04 a4 bc 3d 3e 3a 3d
       0.18510325 0.0020449832 -0.020021912 0.04546951
000050 0d 66 c7 3d e1 e3 29 3d 5a 17 bd bc 28 4b 5a 3d
       0.097362615 0.041477088 -0.023082424 0.05329433
000060 a1 df 66 bb 57 e0 f6 3d 22 fb b8 bd de 5d a2 3d
       -0.0035228508 0.12054508 -0.09032275 0.0792806
000070 64 2b 68 3d ff 02 2e 3e 59 ed d1 3d e9 52 d5 bc
       0.056682006 0.1699333 0.102503486 -0.026040511
000080 03 b5 1c 3e 47 5b d9 bc 22 06 98 3d fc 0b b0 3c
       0.15303425 -0.026532782 0.07423045 0.02149009
000090 c1 0c bc bd 3a 45 37 3e 43 cc 0b 3d ef 9b 99 3d
       -0.0918212 0.17897502 0.034130346 0.07500445
0000a0 33 cd 58 3d 49 97 85 3d aa 3e 8b 3d 1e 8d 4c 3e
       0.05293007 0.06522996 0.067990616 0.19975707
0000b0 c9 e0 a5 3d 54 56 de 3d 5d 19 8e 3d 81 e6 7a 3d
       0.08099515 0.108563095 0.069384314 0.061254982
0000c0 e5 23 1e 3c ae b2 2e 3b e6 6f ee 3d 52 73 fa 3d
       0.009652113 0.0026656794 0.11642437 0.12229027
0000d0 2c ce 67 bc df 43 00 3d 70 f7 ec bb 15 eb 96 3d
       -0.014148276 0.031314727 -0.0072316453 0.07369057
0000e0 f3 1c 27 3e d9 e3 ea bd 66 43 00 be f3 90 0b 3e
       0.16319637 -0.1146924 -0.1252571 0.13629512
0000f0 46 70 41 bd 5d 74 d5 3d a0 0a 80 3d 98 f0 8e 3e
       -0.047226213 0.10422585 0.062520266 0.27917933
000100 65 03 c4 bb 0e 02 9a 3e 5b a6 d1 3c 95 03 fa 3d
       -0.00598185 0.30079693 0.02559202 0.122077145
000110 71 23 17 be 6f 6a 28 be 85 0f 41 be fc 3a 42 bd
       -0.14759614 -0.16446851 -0.18853576 -0.047419533
000120 f5 3f 56 3e ae e5 d8 3d 3c f5 26 3d d9 74 f0 bd
       0.20922835 0.10590683 0.040761217 -0.11741037
000130 e7 9b 64 be 62 d3 a2 3d bb f9 b9 3d 43 c2 02 3e
       -0.22325097 0.07950474 0.090808354 0.12769417
000140 c5 21 f7 3c 39 56 a2 bd 98 ef 74 3d 87 81 be 3d
       0.03016747 -0.07926602 0.059798807 0.09302049
000150 09 c0 e1 3d a7 5f b2 3b bb 16 ff 3b bb 14 a7 3d
       0.11022956 0.0054435316 0.007784692 0.08158251
000160 ae a5 7e bd 2f 61 bb bb f2 1f 3c 3e f4 58 cf bc
       -0.062169723 -0.0057183723 0.18371561 -0.02531097
000170 be 44 09 3e 71 23 5d 3e ec 19 02 3e 40 9f 58 3d
       0.1340513 0.21595551 0.12705201 0.052886248
000180 f8 46 f9 bc ac 5b 2d 3e bc 71 1a 3e 22 11 81 bd
       -0.030429348 0.16929501 0.15082449 -0.06302096
000190 7b 51 59 bd 20 28 0b bd 99 62 6e 3e 5b e9 b2 3d
       -0.05305622 -0.033973813 0.232798 0.08735915
0001a0 55 a0 04 3e f9 0c b7 3d 61 d6 ce 3c 56 b4 0c 3e
       0.12951787 0.08938021 0.025248708 0.13740668
0001b0 ca 43 33 3d c4 7c e5 3d 98 21 b6 bd 07 2f 6e bb
       0.04376582 0.11205438 -0.08893126 -0.0036343948
0001c0 23 43 a3 3c 90 7b 02 be 95 22 5c bd a9 be ef bc
       0.019929474 -0.12742448 -0.053743917 -0.029265719
0001d0 48 4c a2 3d 24 83 fe 3d 57 4c d5 3d 65 ff bf 3c
       0.07924706 0.12427357 0.10414951 0.023437211
0001e0 43 ca 0f bd 27 d3 f9 3d 00 05 0a 3d 62 b7 cf bd
       -0.035105 0.12198477 0.033696175 -0.10142399
0001f0 63 50 c3 3c 57 c0 89 bc fc 64 95 3d 61 3f 03 3b
       0.023842042 -0.016815348 0.07294652 0.002002679
000200 1b a7 0f be e8 1a 9b 3d 5d ba 5d bd c4 28 de 3d
       -0.1402859 0.07573491 -0.054132808 0.10847619
000210 b1 d3 b6 bd fa b6 88 bd 4e d1 81 bd fe 38 07 be
       -0.08927096 -0.06675525 -0.0633875 -0.13205335
000220 b4 d2 08 3e 90 40 c6 bd 81 d0 7c ba 5f 36 9b 3d
       0.13361627 -0.09680283 -0.00096441066 0.0757873
000230 eb 9e 85 3d 8e 0d 13 be df 13 db bd dd ce ad 3d
       0.06524452 -0.1436064 -0.106971495 0.08486722
000240 0e bc 27 3c d6 55 e8 3d f7 57 0c 3d e9 11 49 3d
       0.010237707 0.11344497 0.034263577 0.049089346
000250 5d ab 2a 3e a7 f3 da bd d1 78 a2 3d e8 9a 9d bd
       0.16666932 -0.10691004 0.079332 -0.07695562
000260 e2 82 85 ba 2e 8c ad 3d cd 01 a5 3c 08 e7 03 bc
       -0.0010186101 0.08474003 0.02014246 -0.008050688
000270 d9 8a e2 bb c7 ad d0 3d f3 a7 fe bd ba 27 b4 bd
       -0.0069135246 0.101893954 -0.124343775 -0.0879664
000280 80 c7 ca 3d 18 c6 c4 3d a9 4a 1a 3e d8 38 9b 3d
       0.09901333 0.09608096 0.15067543 0.075792015
000290 ec 19 9a bd 6d be b1 3d 57 38 8c bd 8f 8f e6 3d
       -0.075244755 0.08678899 -0.068466835 0.112578504
0002a0 c8 99 d8 bc 6a 1e 28 3a 0d 97 ca bd 85 04 b1 bd
       -0.026440516 0.00064132235 -0.09892092 -0.0864344
0002b0 43 03 a3 bd 47 28 45 3d b1 ce 3f 3e 3f 20 a3 3d
       -0.079596065 0.048134115 0.1873119 0.07965135
0002c0 cb d1 8b bd 9e 60 83 bd e9 e7 40 bd c4 6a ff bd
       -0.06827124 -0.06414913 -0.047096167 -0.12471536
0002d0 b9 28 00 3e 25 d1 84 3d fe 62 44 3c cb c1 71 bc
       0.12515534 0.06485204 0.011986492 -0.0147556765
0002e0 56 fe 17 3e 84 1a 2d be da 62 e8 bd 33 8e 82 3d
       0.14843115 -0.16904646 -0.113469794 0.063747786
0002f0 0b bf e5 bd 23 86 b6 3d 97 4f 9b 3d 60 89 80 bd
       -0.11218079 0.08912303 0.0758354 -0.06276202
000300 e6 3e 57 3d 91 c1 d9 3d df 84 a3 3d cc 7b 85 3e
       0.05255022 0.10632623 0.079843275 0.26071012
000310 e6 dd 54 3e 00 ab 0c bc da a0 5d 3e 39 42 4b bd
       0.20787773 -0.008585691 0.21643391 -0.0496237
000320 4d 31 94 3c d6 28 ab 3c 04 3e 96 bc 0b 98 77 3e
       0.018089915 0.020893496 -0.018340118 0.24179094
000330 1c f6 5f 3e 68 cb 1a 3d a6 31 f1 3c 37 e8 76 3c
       0.21871227 0.03779164 0.02944262 0.015070013
000340 78 44 59 3e 39 94 ff 3c 45 4c b8 3d 0f 3a 71 3e
       0.21217525 0.031198608 0.08998922 0.23557304
000350 65 dc 4c 3d a4 4f 49 bd e6 9a 63 3e a5 7d 45 3d
       0.050014872 -0.049148217 0.22227058 0.048215527
000360 2d 34 eb bd 94 25 6c 3e bf 94 5c 3d 80 90 02 3d
       -0.11484561 0.2306121 0.053852793 0.031876087
000370 75 4a 3c bc b8 ed 90 3e 74 17 17 bd ca e0 84 bc
       -0.011492361 0.28306365 -0.0368876 -0.016220469
000380 5f fd 37 3c d9 74 ca bd e7 ca a7 bd 1f d1 2e 3d
       0.011229842 -0.09885568 -0.081929974 0.042679902
000390 78 c2 ef 3c 4c 20 2d 3d 0f 4f cb bd a4 a7 91 3d
       0.029267535 0.04226713 -0.099271886 0.07112053
0003a0 71 bf 15 3e 0b 45 8e bb 22 99 a6 3d ee 5d 18 bd
       0.1462381 -0.0043417267 0.081346765 -0.037198953
0003b0 12 a0 2a 3e e2 9e d9 bb 7d 65 c4 bc 6b be 7e bc
       0.16662624 -0.0066412548 -0.023974175 -0.015548329
0003c0 ca 0e 9c 3e db 54 44 3d 36 1b 72 3d 19 a4 e6 bd
       0.30480033 0.047932487 0.05910798 -0.11261768
0003d0 43 7e 64 bd f0 d6 8d 3d b3 55 e2 3d 5b d6 60 bc
       -0.055784475 0.06925762 0.11051502 -0.013722981
0003e0 04 a0 fc 3c cc 65 de bd c0 10 fa 3d 21 a9 64 3e
       0.03083802 -0.1085926 0.12210226 0.22330143
0003f0 57 4f 41 3e ea 24 a7 3d 16 2d 60 3d ea 2c d9 3c
       0.18877922 0.08161338 0.054730497 0.026510675

fc.weight f4 [2, 64]
000000 92 84 5a bd a4 60 ed 3d ec 46 87 3e c3 e7 90 bd
       -0.053349085 0.11590698 0.26421297 -0.07075455
000010 6b 2a 2f be e7 f2 91 bd f4 4c 29 be 85 37 4b be
       -0.17106025 -0.07126408 -0.16533262 -0.19845398
000020 69 2c 35 3e bc 23 38 be c4 3c 2d 3e c7 95 f2 3d
       0.17692722 -0.17982382 0.16917711 0.11844974
000030 c6 d1 02 be 92 93 6a 3e 86 ba fe bd 84 c0 47 3e
       -0.12775335 0.22907856 -0.1243792 0.19507033
000040 f7 67 61 be 11 27 99 bd 26 87 21 be d3 c6 9f 3e
       -0.22012316 -0.074781545 -0.15774211 0.31206378
000050 22 32 3a be 4d b5 22 be 8b 04 32 3e 81 e6 a2 be
       -0.18183187 -0.15889473 0.17384546 -0.31816486
000060 12 ec cc 3d 95 3d 97 3e 14 d7 67 3e e6 92 34 3c
       0.10005964 0.2953917 0.2264064 0.011021351
000070 59 bf 34 3e 38 dd 6a bd 72 1c 7a be 56 c2 80 be
       0.17651118 -0.057339877 -0.24424914 -0.25148267
000080 f5 5e e5 3d 6a d7 56 3e 08 32 8f 3e 72 3c 6c 3e
       0.11199752 0.20980611 0.27967858 0.23069933
000090 7e 13 2b be a7 e6 34 be 83 1f a2 3e d4 1d b0 bd
       -0.16706654 -0.17666112 0.31664667 -0.08599439
0000a0 68 87 38 3e 8f cc a9 3d b9 8b 1e 3e 85 26 82 be
       0.18020403 0.082909696 0.15482987 -0.25420013
0000b0 a0 c0 23 3e 9b 64 4d be 29 a1 15 be 11 74 72 be
       0.1599145 -0.20057909 -0.14612259 -0.23677088
0000c0 d1 28 7d be ac 48 1c 3e 43 c3 73 be 61 44 79 be
       -0.24722601 0.15262097 -0.23804955 -0.2434249
0000d0 27 90 8a 3d ab dc 16 be ac 8e 10 3c ef 55 0a 3e
       0.06765776 -0.14732616 0.008823078 0.13509344
0000e0 e4 15 a6 3e 85 e7 e7 bd 35 f8 b7 bd 73 bd 4b 3e
       0.32438576 -0.11323456 -0.089828886 0.19896488
0000f0 02 0d 29 bd 2b 85 17 be b3 a8 19 3e b0 32 17 3e
       -0.04127217 -0.14796893 0.1500576 0.1476543
000100 b2 70 88 3e 5d 63 e1 bd f8 05 91 be 89 0a 5d 3e
       0.2664848 -0.1100528 -0.28324866 0.2158605
000110 77 c9 7b 3e b2 96 fa 3d b2 8f 3c 3e 79 bf 6d 3e
       0.24588571 0.12235774 0.1841419 0.23217572
000120 98 83 eb bd 2d 0c 93 3d 3d 51 ff bd d0 ed b8 bd
       -0.11499709 0.07180057 -0.12466667 -0.09029734
000130 6f b0 4d bd 41 fb 25 be 19 46 82 3e dd f8 1d bc
       -0.05021709 -0.16209127 0.25444105 -0.009641853
000140 1c 3c 87 bc 80 5d a3 3d be d2 68 3e 4b 45 81 be
       -0.016508155 0.07976818 0.22736642 -0.2524818
000150 19 c1 85 3b 7f c5 2e bb e9 f5 71 be 79 de 86 3e
       0.004081857 -0.002666801 -0.23628964 0.26341608
000160 c0 2a 3d be 21 e3 77 be d0 05 cf bd f2 93 1a be
       -0.18473339 -0.24207737 -0.101085305 -0.15095499
000170 5b de 7a be 9b 46 47 3e 04 0b ae 3d 59 71 01 3d
       -0.24498884 0.19460528 0.08498195 0.031602237
000180 b0 32 a8 bd 6a 0f 49 be 2e a0 b3 be 76 4f b1 bd
       -0.08212793 -0.19634786 -0.35083145 -0.08657734
000190 ed c7 63 3d f8 93 79 3e 1c 7d 1a be 79 40 5e 3e
       0.055610586 0.24372852 -0.15086788 0.21704282
0001a0 24 c8 97 bd db 3b 2f be 5a 7e 08 bd e9 2e b2 3d
       -0.07411221 -0.17112677 -0.033323623 0.08700354
0001b0 c4 a7 12 bd 98 7b 8e 3e 73 0c 19 3e a2 80 29 3d
       -0.035804525 0.2782867 0.14946155 0.04138244
0001c0 6e 87 d0 3d 55 f6 8c be 12 b2 54 3e 94 25 a1 3d
       0.10182081 -0.27531686 0.20771053 0.078684956
0001d0 1a c3 57 be cd 60 52 3e d9 81 4e be 4a 0a aa be
       -0.21070519 0.20544739 -0.2016672 -0.33210975
0001e0 c3 26 56 be aa b2 f2 3d 26 80 15 3e 65 a9 c8 bd
       -0.20913224 0.11850484 0.14599666 -0.097979344
0001f0 1d 40 3d bc 6b 90 6e 3e 1a dc d5 bd 8d 3f 93 be
       -0.01155093 0.23297279 -0.10442372 -0.28759423

fc.bias f4 [2]
000000 00 73 84 bd e5 9d ea bd
       -0.06467247 -0.11455897
